conv_autoencoder.pth (torch, 14316 bytes, 7 tensors)

encoder_network.0.weight f4 [16, 1, 3, 3]
-0.22120588 0.1660026 0.22815748 0.015565008 0.30675432 0.37315696 -0.31203964 -0.024425175
0.45910951 0.21020748 0.32648093 0.2349855 -0.32818335 -0.15669122 0.34117436 -0.75246286
-0.20380159 0.15181676 0.032104716 0.11482324 -0.22312205 -0.06381645 -0.1683846 -0.17791547
-0.61934865 -0.3109681 -0.16665292 -0.57656634 -0.21293615 -0.033681594 0.023445021 0.70763135
0.08887614 -0.15997717 0.2536978 -0.07743697 0.1450863 0.15074584 0.06722062 0.12014277
0.32179222 0.14787398 0.057509217 0.17416228 0.17267793 0.2358304 0.0501539 0.007005422
0.14609481 -0.23106216 -0.0055360845 0.61280066 -0.5419843 -0.2022883 0.16922973 -0.33014572
-0.13318403 0.04372082 0.41919947 0.37116337 -0.3710099 -0.09124987 -0.41550735 0.39232498
0.17715076 0.19761637 0.43952096 -0.07438219 0.060260277 0.06587914 -0.12601323 0.80684984
-0.18320274 -0.24772823 0.03204448 -0.13260585 0.05489611 0.15463252 0.06521572 -0.13220285
-0.11958629 -0.371461 -0.6023816 -0.5699664 0.23910624 -0.17137437 -0.18302315 0.39419
0.4960551 0.53258556 0.17975849 -0.014987896 0.08673472 -0.13434951 -0.45350477 -0.3570464
0.014145395 -0.111644894 -0.11262675 0.0050666803 0.06271592 0.02966331 -0.52067727 -0.36599952
-0.0018982498 0.020542327 0.044601213 0.41469058 -0.33575404 0.5409102 0.27127665 0.29243752
0.15155607 -0.057546437 -0.022150122 -0.13340361 -0.11151128 -0.0037007385 0.20702235 -0.45764664
0.21960457 0.6368411 -0.44104308 0.05858616 0.58503515 -0.5895678 0.8318654 0.13163963
-0.060018398 -0.3661782 -0.13346885 -0.20501597 -0.12689388 -0.035516925 0.009078296 -0.5732777
-0.31373402 -0.47017086 -0.116516374 -0.10831242 -0.1790111 -0.050374832 -0.082040206 0.049056325
00000000: cb83 62be 96fc 293e 1da2 693e 6004 7f3c
00000010: e70e 9d3e 6e0e bf3e a9c3 9fbe 4e17 c8bc
00000020: 6710 eb3e a140 573e 8228 a73e 0aa0 703e
00000030: a607 a8be aa73 20be 68ae ae3e 68a1 40bf
00000040: 5db1 50be da75 1b3e 3c80 033d 7228 eb3d
00000050: 1b7a 64be 33b2 82bd 036d 2cbe 792f 36be
00000060: a28d 1ebf 3637 9fbe 10a7 2abe da99 13bf
00000070: ef0b 5abe b6f5 09bd c60f c03c 5427 353f
00000080: b204 b63d 0ed1 23be aee4 813e 4697 9ebd
00000090: 8191 143e 1e5d 1a3e f7aa 893d 6a0d f63d
000000a0: f3c1 a43e 476c 173e c98e 6b3d 9957 323e
000000b0: 7cd2 303e 867d 713e 2d6e 4d3d bd8d e53b
000000c0: e199 153e 8f9b 6cbe 0b68 b5bb 81e0 1c3f
000000d0: 7cbf 0abf aa24 4fbe 8f4a 2d3e dc08 a9be
000000e0: 6561 08be 9a14 333d 50a1 d63e 2009 be3e
000000f0: 02f5 bdbe 36e1 babd 61bd d4be d2de c83e
00000100: 0267 353e f25b 4a3e e408 e13e b155 98bd
00000110: 7bd3 763d a4eb 863d 9d09 01be b68d 4e3f
00000120: 8099 3bbe 78ac 7dbe 1341 033d d4c9 07be
00000130: beda 603d fd57 1e3e d28f 853d 2f60 07be
00000140: a8e9 f4bd 2330 bebe ae35 1abf 51e9 11bf
00000150: 44d8 743e c37c 2fbe 6c6a 3bbe 46d3 c93e
00000160: effa fd3e 8757 083f 9c12 383e cb8f 75bc
00000170: f9a1 b13d eb92 09be c731 e8be c9ce b6be
00000180: 16c2 673c 14a6 e4bd daa8 e6bd 6506 a63b
00000190: 3471 803d 7800 f33c 1b4b 05bf 4a64 bbbe
000001a0: b2ce f8ba 6248 a83c c3af 363d 5352 d43e
000001b0: f4e7 abbe 1779 0a3f c6e4 8a3e 5fba 953e
000001c0: 8431 1b3e d0b5 6bbd 2c74 b5bc f59a 08be
000001d0: 0760 e4bd 1788 72bb abfd 533e a950 eabe
000001e0: 05e0 603e 0508 233f 66d0 e1be 0bf8 6f3d
000001f0: ddc4 153f eaed 16bf 21f5 543f 8acc 063e
00000200: dad5 75bd b67b bbbe 0fac 08be b5ef 51be
00000210: 78f0 01be 327a 11bd 22bd 143c 54c2 12bf
00000220: bfa1 a0be 3cba f0be 23a0 eebd e7d2 ddbd
00000230: b04e 37be d755 4ebd b204 a8bd 49ef 483d

encoder_network.0.bias f4 [16]
0.9920545 -0.17262362 0.46381828 0.1229591 1.3671513 0.09588776 -0.327128 0.4187295
1.0257299 -0.23699746 0.8816732 0.39749926 0.61448425 0.20785306 0.046674978 0.17300889
00000000: 49f7 7d3f 3fc4 30be 9779 ed3e fbd1 fb3d
00000010: d0fe ae3f cd60 c43d 527d a7be b763 d63e
00000020: 1e4b 833f 76af 72be 56b5 613f 0685 cb3e
00000030: d74e 1d3f 6fd7 543e 432e 3f3d 3e29 313e

encoder_network.3.weight f4 [8, 16, 3, 3]
-0.043872286 -0.55086136 0.1796888 0.19206588 -0.00563823 0.019356435 -0.08460439 0.031315662
-0.042492263 -0.05165926 -0.19336167 0.26593435 0.04551528 -0.090406954 -0.48997277 -0.01331379
-0.0005138667 0.06474275 -0.005623991 -0.026992586 -0.06525534 0.13371174 0.18685094 0.15209393
-0.013523432 0.03458892 -0.07101177 0.09706188 0.1926004 -0.18559195 0.0009697957 0.030022506
-0.050661426 -0.14189252 -0.003715634 0.033732962 0.025773682 -0.7521163 -0.26230833 0.19497211
-0.025328035 0.21692573 0.0928976 0.039586585 0.0014978527 0.0026134772 -0.0990169 -0.26339364
-0.10892189 -0.15248923 -0.032949604 0.06864662 0.011743411 0.059906833 -0.14961542 -0.60633117
-0.4093193 0.031014001 -0.41669783 0.07116232 -0.06716478 -0.0146707 0.013302619 -0.030925428
0.2733798 -0.12183344 0.05233205 0.15315214 -0.13060607 0.02907485 0.009026922 -0.009814739
-0.28946114 -0.07532509 0.0020974616 0.07281475 0.48178166 -0.05973738 -0.081097335 0.056851037
-0.0399923 -0.06955658 -0.747036 0.018000472 -0.044820365 0.21273698 -0.09130612 -0.06631751
-0.034914706 -0.06247157 -0.07675183 0.23439556 0.1901342 0.1457147 0.14857776 0.09971979
-0.049358323 0.06544327 0.03587175 -0.07587493 0.12748812 0.21222901 0.019459512 0.15955101
0.2006322 0.14718632 0.049568765 0.09613271 0.13064562 -0.028615955 0.24407431 0.0046738656
0.11341738 -0.07639108 -0.08798976 -2.3086792e-05 -0.07139177 0.23463565 -0.3856677 -0.033062343
-0.02161906 0.068534896 0.046012882 -0.04084825 0.075941265 0.03668045 0.0442912 0.22359242
0.1514957 -0.022005256 -0.23223592 0.3510623 0.04814611 -0.013259445 -0.0012388219 0.34855235
0.041856803 0.014475096 0.06915767 -0.11752296 -0.11707637 -0.18355702 0.22603562 0.021016369
0.123245835 0.03461085 -0.05369254 -0.7373369 0.20700857 0.033828393 -0.19062136 0.009544242
-0.0044217883 -0.14008303 -0.059915062 0.04008729 -0.24115571 0.28201357 -0.22976439 -0.1506747
-0.3758736 0.016697554 0.012974497 0.06408788 -0.06038241 -0.007902523 0.05912385 0.10669109
-0.05304507 0.14155559 -0.06677411 0.19933747 0.030632429 -0.06599424 0.06493833 -0.24852312
-0.12225306 -0.15570533 0.045266714 0.061839942 0.015835583 0.09759453 0.051707517 -0.30266944
-0.3336021 0.23084371 -0.27354202 0.14935993 0.013432525 -0.08233037 0.012632474 -0.017717686
0.30852517 -0.12221008 0.01613237 0.13366374 0.07092958 0.10555094 0.21861002 0.025524741
-0.00486946 -0.20159507 -0.39514372 0.16655706 -0.17251675 -0.21446902 0.016584707 0.05344873
-0.094450675 -0.01577579 0.17168932 0.09834723 0.0412868 0.20999749 -0.20240472 -0.041667048
-0.055671893 0.20513782 -0.08570588 0.30239123 0.018118946 0.25480968 0.13389835 0.009892521
-0.09227488 0.014948644 0.016310504 0.0035810631 -0.49850348 -0.14575665 0.03503534 0.12724914
-0.020729024 -0.032091483 -0.13929291 -0.012191032 -0.03758887 0.029198248 0.22644083 0.09299846
0.045435753 0.14701585 0.004021401 -0.045177963 -0.08767094 -0.114858106 0.42563823 0.22660379
0.09264375 0.18418619 0.19681412 -0.1138806 -0.035598066 0.049675006 -0.045035645 0.121292286
00000000: 6db3 33bd 4005 0dbf 5700 383e ebac 443e
00000010: e7c0 b8bb 6391 9e3c 1145 adbd da44 003d
00000020: 5e0c 2ebd a998 53bd 9a00 46be 8c28 883e
00000030: 3b6e 3a3d 4827 b9bd b6dd fabe 1522 5abc
00000040: 03b5 06ba d997 843d 7549 b8bb 8e1f ddbc
00000050: 97a4 85bd bbeb 083e da55 3f3e 83be 1b3e
00000060: 6391 5dbc 1dad 0d3d 9e6e 91bd 61c8 c63d
00000070: 0a39 453e d10b 3ebe e339 7e3a c2f1 f53c
00000080: 5b82 4fbd 464c 11be ff81 73bb 932b 0a3d
00000090: 5423 d33c b28a 40bf 474d 86be c5a6 473e
000000a0: bd7c cfbc c721 5e3e 1941 be3d 8b25 223d
000000b0: 9953 c43a df46 2b3b 5fc9 cabd 88db 86be
000000c0: 7112 dfbd 2326 1cbe 2af6 06bd 9996 8c3d
000000d0: 7067 403c de60 753d c934 19be 8538 1bbf
000000e0: 4d92 d1be 1311 fe3c 6b59 d5be 8dbd 913d
000000f0: b08d 89bd 605d 70bc 3af3 593c 5357 fdbc
00000100: 70f8 8b3e d083 f9bd 225a 563d ead3 1c3e
00000110: 99bd 05be 612e ee3c a8e5 133c 00ce 20bc
00000120: 4034 94be 0a44 9abd 9175 093b e61f 953d
00000130: 16ac f63e 2faf 74bd 5c16 a6bd a2dc 683d
00000140: f7ce 23bd ae73 8ebd c03d 3fbf ba75 933c
00000150: 8f95 37bd b9d7 593e b4fe babd 7ad1 87bd
00000160: b902 0fbd 30e2 7fbd 1030 9dbd 6405 703e
00000170: 8ab2 423e 3c36 153e c524 183e e439 cc3d
00000180: f42b 4abd 1f07 863d 42ee 123d 5164 9bbd
00000190: 3f8c 023e 9052 593e 8e69 9f3c 5761 233e
000001a0: 8772 4d3e 03b8 163e 9e08 4b3d 3ae1 c43d
000001b0: f7c7 053e 026c eabc 9eee 793e 3a27 993b
000001c0: 5f47 e83d ed72 9cbd fa33 b4bd 82aa c1b7
000001d0: d935 92bd 5444 703e 3d76 c5be 616c 07bd
000001e0: 741a b1bc 065c 8c3d 0178 3c3d 7f50 27bd
000001f0: 1887 9b3d 3d3e 163d b06a 353d 69f5 643e
00000200: b021 1b3e 5e44 b4bc 41cf 6dbe 70be b33e
00000210: db34 453d 253e 59bc f75f a2ba 7475 b23e
00000220: 0a72 2b3d f428 6d3c 89a2 8d3d e1af f0bd
00000230: bcc5 efbd 5ff6 3bbe e275 673e 852a ac3c
00000240: 5068 fc3d 1bc4 0d3d b5ec 5bbd 1cc2 3cbf
00000250: 0efa 533e a48f 0a3d 3f32 43be 745f 1c3c
00000260: a6e4 90bb ed71 0fbe 7f69 75bd 9232 243d
00000270: 86f1 76be 1564 903e 5b47 6bbe 784a 1abe
00000280: 8172 c0be 4fc9 883c fc92 543c 8240 833d
00000290: 8c53 77bd 9579 01bc da2b 723d dc80 da3d
000002a0: ca45 59bd f3f3 103e ddc0 88bd 1f1f 4c3e
000002b0: dcf0 fa3c fd27 87bd 63fe 843d d87c 7ebe
000002c0: d05f fabd 3871 1fbe 9769 393d e14b 7d3d
000002d0: a0b9 813c a4df c73d 43cb 533d 7df7 9abe
000002e0: e5cd aabe 4b62 6c3e b30d 8cbe cff1 183e
000002f0: 1814 5c3c d39c a8bd 70f8 4e3c ae24 91bc
00000300: 03f7 9d3e 4749 fabd 0828 843c 26df 083e
00000310: 8743 913d 172b d83d 4edb 5f3e 4319 d13c
00000320: fe8f 9fbb f06e 4ebe 4750 cabe ef8d 2a3e
00000330: 3ba8 30be c49d 5bbe a7dc 873c 0eed 5a3d
00000340: 5b6f c1bd 3b3c 81bc 53cf 2f3e 466a c93d
00000350: 591c 293d 9509 573e 2f43 4fbe 11ab 2abd
00000360: 3608 64bd a60f 523e 9086 afbd 06d3 9a3e
00000370: 2f6e 943c 6a76 823e a61c 093e 3e14 223c
00000380: 9dfa bcbd 28eb 743c 9b9d 853c 45b0 6a3b
00000390: d93b ffbe 3b41 15be 3781 0f3d 994d 023e
000003a0: eacf a9bc 5c72 03bd cda2 0ebe e5bc 47bc
000003b0: c9f6 19bd 2a31 ef3c 1be0 673e fa75 be3d
000003c0: d71a 3a3d 538b 163e f5c5 833b 870c 39bd
000003d0: d28c b3bd ba3a ebbd 41ed d93e d30a 683e
000003e0: 02bc bd3d 4e9b 3c3e a489 493e 3b3a e9bd
000003f0: 47cf 11bd 0578 4b3d 4c77 38bd 1768 f83d

encoder_network.3.bias f4 [8]
0.3733396 0.25790638 0.34553993 0.15744568 0.39868855 0.2795693 0.23138064 0.29543346
00000000: 5e26 bf3e 4e0c 843e 9cea b03e 7139 213e
00000010: e820 cc3e b523 8f3e 0cef 6c3e 0e43 973e

decoder_network.0.weight f4 [8, 16, 3, 3]
0.07060356 -0.07384728 0.09591993 0.105683915 -0.09154259 0.42278147 0.15652624 -0.01504684
0.055204127 -0.019071074 0.18516272 0.22575633 0.08342569 0.12366035 0.4532454 0.046842575
-0.07497588 0.04133074 -0.0779036 -0.15024358 0.043316413 0.018887652 0.08695408 -0.06593924
0.0032693136 -0.08170674 -0.09054261 -0.006188946 0.18729319 -0.062062327 0.060163103 0.021166133
-0.06192977 -0.027703037 0.09107731 -0.046532832 -0.010449173 -0.14882149 0.13717327 0.01239912
-0.023033028 -0.02718994 0.0711879 0.09161134 -0.1812609 0.10193131 -0.0429068 -0.16101399
-0.030263845 0.22710462 -0.034819692 0.048715368 0.21842176 0.07598719 0.05392611 -0.04222471
-0.22568913 0.032867856 0.21691357 -0.30760452 0.12609565 -0.049915176 0.07841734 -0.088014565
-0.06451259 0.19271708 -0.032025155 0.029495334 0.43906423 -0.08201846 -0.0037315725 0.08278075
0.039829988 0.087609194 -0.08970593 0.040137857 0.2636683 -0.22160004 0.019380521 0.008294344
0.008930553 0.034495477 0.06635696 0.23758462 0.16026445 -0.013280997 -0.019205475 -0.060168155
0.06817325 0.13353094 0.061353438 0.057252545 -0.11763023 0.090968244 -0.13547224 0.27866182
0.02094146 0.058991544 0.0018449085 0.062710166 0.05756424 -0.14290805 0.00988506 0.11548624
0.035337757 0.05204134 -0.13442373 -0.085104264 0.07106697 0.039932016 0.28710347 -0.062285185
0.047812667 0.045120653 0.095826246 -0.025813734 0.08669417 -0.05610878 0.08564177 0.34054318
-0.06183442 0.025725335 0.48156425 0.07467613 -0.07378868 -0.024649505 0.0625952 -0.07201495
0.00184307 -0.059255585 0.24862003 0.19702181 -0.032911442 -0.11667348 0.09964295 0.036687125
0.2741926 -0.06722101 0.08093201 0.09631939 0.22688587 0.032562993 -0.021917 -0.07296556
0.04184646 0.07671278 0.037746303 0.02199969 -0.018931225 0.04846846 0.124847375 0.33505514
0.008121367 0.03389748 0.051287472 0.0089783175 0.02689009 -0.39246812 0.037608128 -0.12209043
-0.031746976 -0.231338 -0.051080152 0.054422904 -0.11167682 -0.13056554 -0.33524266 0.014004381
-0.0278394 0.5434279 -0.044113103 0.07138062 -0.110239975 -0.030534258 -0.03722839 -0.08654912
-0.044334773 -0.021748472 -0.07361405 0.0054485663 0.026022134 0.09410086 -0.026347773 -0.049396135
-0.035859678 0.021943115 -0.13354062 0.382125 0.1932288 0.04081073 -0.018485084 0.07641717
-0.02260292 -0.1440552 -0.23202653 -0.042613164 0.12079864 0.24157353 -0.025754943 0.024539942
0.10038567 0.23871545 0.0023625847 0.19011617 0.05100627 -0.09659151 0.09862136 0.011023965
-0.023310294 -0.011477311 -0.03620502 -0.06403204 -0.060430884 -0.019218186 0.49295408 0.2843886
-0.030175254 0.0553348 -0.011919002 0.14339033 0.5313105 0.13693196 -0.077895105 -0.48497933
0.10503647 -0.007981472 0.06378391 0.011124587 0.05194197 -0.013305821 0.01577653 0.04659315
0.041134562 0.06433689 0.019524397 0.0683528 0.030194854 0.047267105 0.15255754 0.053781334
-0.05871448 0.055378165 0.09407091 -0.08382068 0.009347647 0.000103815495 0.07440009 -0.020336434
0.20274016 -0.054309577 0.1925533 0.39853325 -0.048612088 0.0006170595 -0.02089368 -0.03281777
00000000: 9998 903d 3e3d 97bd ab71 c43d cf70 d83d
00000010: ae7a bbbd d076 d83e 6a48 203e 0587 76bc
00000020: b91d 623d f13a 9cbc 4c9b 3d3e ab2c 673e
00000030: 17db aa3d a341 fd3d c80f e83e 00de 3f3d
00000040: f48c 99bd 6c4a 293d ec8b 9fbd 74d9 19be
00000050: 8d6c 313d 47ba 9a3c fb14 b23d 270b 87bd
00000060: fb41 563b dd55 a7bd 676e b9bd a4cc cabb
00000070: c9c9 3f3e 1135 7ebd 966d 763d 9964 ad3c
00000080: 12aa 7dbd 7bf1 e2bc be86 ba3d 3699 3ebd
00000090: 0233 2bbc a964 18be 2677 0c3e ae25 4b3c
000000a0: c3af bcbc 70bd debc f6ca 913d ba9e bb3d
000000b0: 759c 39be 5dc1 d03d 0abf 2fbd dae0 24be
000000c0: e2eb f7bc 1d8e 683e 189f 0ebd c489 473d
000000d0: f4a9 5f3e 2c9f 9b3d a0e1 5c3d d1f3 2cbd
000000e0: 0d1b 67be 72a0 063d 971e 5e3e 577e 9dbe
000000f0: 381f 013e db73 4cbd 4599 a03d fb40 b4bd
00000100: 2d1f 84bd a057 453e cf2c 03bd 33a0 f13c
00000110: 07cd e03e 4bf9 a7bd 668d 74bb f488 a93d
00000120: c524 233d 736c b33d beb7 b7bd 9867 243d
00000130: 88ff 863e 1feb 62be e6c3 9e3c 00e5 073c
00000140: 7451 123c 214b 0d3d 28e6 873d 6249 733e
00000150: 5d1c 243e 8a98 59bc cd54 9dbc e272 76bd
00000160: 6b9e 8b3d 56bc 083e be4d 7b3d a581 6a3d
00000170: 1ee8 f0bd 8f4d ba3d 3cb9 0abe c3ac 8e3e
00000180: 6d8d ab3c 1ea1 713d dbd0 f13a 306e 803d
00000190: 7bc8 6b3d 7d56 12be f2f4 213c 0d84 ec3d
000001a0: 53be 103d 4d29 553d 60a6 09be 254b aebd
000001b0: 8f8b 913d c18f 233d 3aff 923e c01e 7fbd
000001c0: 37d7 433d 6fd0 383d 8d40 c43d 5377 d3bc
000001d0: b78c b13d 52d2 65bd f464 af3d ad5b ae3e
000001e0: 1746 7dbd f0bd d23c 978f f63e cdef 983d
000001f0: 851e 97bd c2ed c9bc ea31 803d 937c 93bd
00000200: 2b93 f13a fcb5 72bd 4096 7e3e 16c0 493e
00000210: 26ce 06bd 81f2 eebd 9a11 cc3d 3d45 163d
00000220: f962 8c3e 2bab 89bd afbf a53d 1a43 c53d
00000230: c554 683e c660 053d 488b b3bc f86e 95bd
00000240: 3267 2b3d 971b 9d3d de9b 1a3d b238 b43c
00000250: a815 9bbc dd86 463d fbaf ff3d 598c ab3e
00000260: 7b0f 053c 16d8 0a3d d012 523d cb19 133c
00000270: 9b48 dc3c 95f1 c8be fb0a 1a3d 8c0a fabd
00000280: 1e09 02bd dee3 6cbe 6c39 51bd 8dea 5e3d
00000290: d1b6 e4bd f9b2 05be eda4 abbe a272 653c
000002a0: 740f e4bc 171e 0b3f f1af 34bd 0130 923d
000002b0: 7fc5 e1bd fb22 fabc cc7c 18bd aa40 b1bd
000002c0: 6198 35bd da29 b2bc f7c2 96bd e389 b23b
000002d0: 5f2c d53c f4b7 c03d 49d7 d7bc 9a53 4abd
000002e0: 99e1 12bd 0cc2 b33c dfbe 08be e3a5 c33e
000002f0: c5dd 453e 2729 273d 086e 97bc 9b80 9c3d
00000300: c229 b9bc 3583 13be 5d98 6dbe 248b 2ebd
00000310: 4765 f73d 0d5f 773e 08fc d2bc fd07 c93c
00000320: 0197 cd3d d371 743e 98d5 1a3b d0ad 423e
00000330: f3eb 503d c5d1 c5bd fff9 c93d dc9d 343c
00000340: 3bf5 bebc 550b 3cbc b74b 14bd 3b23 83bd
00000350: 6086 77bd 756f 9dbc 7a64 fc3e 629b 913e
00000360: 1832 f7bc bea6 623d eb47 43bc ead4 123e
00000370: f703 083f e437 0c3e 7887 9fbd 364f f8be
00000380: 5c1d d73d b8c4 02bc 23a1 823d e643 363c
00000390: 1ac1 543d a900 5abc c83d 813c 75d8 3e3d
000003a0: b77c 283d 0fc3 833d a1f1 9f3c 8efc 8b3d
000003b0: 335b f73c 279b 413d 0b38 1c3e d149 5c3d
000003c0: 987e 70bd 37d4 623d 40a8 c03d 2daa abbd
000003d0: e026 193c 85b7 d938 135f 983d 9898 a6bc
000003e0: 1e9b 4f3e b873 5ebd b12c 453e 8d0c cc3e
000003f0: 781d 47bd 29c2 213a 3929 abbc ed6b 06bd

decoder_network.0.bias f4 [16]
0.070928425 -0.21073544 -0.11620777 -0.04526799 -0.09767653 -0.007221113 0.04683127 -0.06806228
0.4061817 0.1800529 0.07225935 0.08068295 0.18737638 -0.12961859 0.009919201 -0.09610539
00000000: ec42 913d 08cb 57be 57fe edbd ee6a 39bd
00000010: a20a c8bd 169f ecbb 25d2 3f3d 3d64 8bbd
00000020: 0cf7 cf3e ca5f 383e b6fc 933d 1a3d a53d
00000030: 98df 3f3e bcba 04be 2584 223c e7d2 c4bd

decoder_network.2.weight f4 [16, 1, 3, 3]
-0.3500054 -0.16084026 0.03469037 -0.049800493 -0.34448123 0.046793014 0.21023528 -0.35981125
0.016301021 -0.17541558 -0.19019988 -0.18820786 -0.1742618 -0.05944152 -0.28177416 0.17087027
0.48077607 0.16253588 -0.21939279 -0.6958205 -0.4022124 -0.20309614 -0.38024172 0.12938412
-0.14441887 -0.013608022 0.25842735 -0.29188588 -0.13014337 -0.0022355786 -0.6347372 -0.019832294
-0.12825118 -0.45456612 -0.18331708 -0.5642222 0.08682689 0.10647749 0.087150976 -0.2543933
-0.49626276 -0.36696395 -0.20858262 -0.58375084 -0.34116906 -0.14934178 -0.23351926 -0.2959372
-0.6262544 -0.34438962 -0.20038785 -0.2677959 -0.16236445 -0.23937921 -0.17399141 0.07443181
0.13433957 0.061693136 0.3343168 -0.0004529797 0.20373145 0.4153762 -0.011677516 -0.3464585
-0.12831071 -0.056573503 -0.53571725 -0.61250514 -0.29703927 -0.29978287 -0.52334243 -0.20700572
-0.31329268 -0.18677999 -0.062210515 0.07479491 0.5385884 0.41684464 0.07943779 0.25745586
0.39685825 0.42368093 0.35396752 0.42776036 -0.08967445 0.12597969 0.21100555 0.21543656
-0.25635138 0.17200272 -0.11549604 -0.16409788 0.21246548 -0.03227127 -0.20069602 0.4783862
-0.08278457 0.44332615 0.33724153 0.20143077 -0.065159835 -0.26832792 -0.13708346 -0.530126
-0.5916425 -0.1542134 -0.514061 -0.49340212 0.027466634 0.2455837 -0.07039843 0.2825899
0.4939668 0.23970865 -0.23264456 0.07428267 -0.12662685 0.10238967 -0.030400075 -0.007329821
-0.37457564 -0.50781566 -0.39856115 -0.57586765 -0.6488056 -0.44955513 0.14742938 -0.084599614
-0.34033993 0.07872302 -0.35321832 -0.59314626 -0.19580339 -0.17037083 -0.290378 0.11187107
-0.27803805 -0.28435305 -0.056283686 -0.6024273 -0.4884195 -0.104645565 -0.4629096 -0.219828
00000000: e833 b3be 4fb3 24be 7d17 0e3d 9afb 4bbd
00000010: d85f b0be 08aa 3f3d eb47 573e 2e39 b8be
00000020: b889 853c 24a0 33be c2c3 42be 90b9 40be
00000030: af71 32be f478 73bd b444 90be 9ef8 2e3e
00000040: 4828 f63e ce6f 263e 81a8 60be 4b21 32bf
00000050: c9ee cdbe 6ff8 4fbe 0baf c2be 457d 043e
00000060: 8ae2 13be 2ef4 5ebc 9750 843e 1172 95be
00000070: 4e44 05be c982 12bb 237e 22bf 5677 a2bc
00000080: 4754 03be e4bc e8be 79b7 3bbe de70 10bf
00000090: 4cd2 b13d df10 da3d 367c b23d d73f 82be
000000a0: 2716 febe b3e2 bbbe af96 55be b270 15bf
000000b0: b6ad aebe 0ded 18be ac1f 6fbe 1585 97be
000000c0: 3552 20bf d653 b0be 7932 4dbe 8b1c 89be
000000d0: de42 26be d31f 75be ce2a 32be b46f 983d
000000e0: 5090 093e f1b1 7c3d 922b ab3e e87d edb9
000000f0: fa9e 503e 30ac d43e 0d53 3fbc 0263 b1be
00000100: e263 03be 9eb9 67bd c424 09bf 23cd 1cbf
00000110: 8815 98be 247d 99be c5f9 05bf 4ff9 53be
00000120: e667 a0be 4143 3fbe 74d0 7ebd 132e 993d
00000130: eee0 093f a96c d53e 48b0 a23d 41d1 833e
00000140: 0131 cb3e b5ec d83e 3b3b b53e 6803 db3e
00000150: 3da7 b7bd d200 013e d711 583e 679b 5c3e
00000160: 7d40 83be 7b21 303e 3089 ecbd 4609 28be
00000170: 8d90 593e e12e 04bd 4283 4dbe 09ef f43e
00000180: f58a a9bd a5fb e23e ecaa ac3e de43 4e3e
00000190: 8572 85bd 4762 89be 9b5f 0cbe 56b6 07bf
000001a0: e275 17bf 1eea 1dbe 8099 03bf 349f fcbe
000001b0: b501 e13c 4b7a 7b3e 0d2d 90bd a0af 903e
000001c0: 37e9 fc3e 2f76 753e 603a 6ebe 8321 983d
000001d0: 78aa 01be adb1 d13d 9409 f9bc ff2e f0bb
000001e0: 61c8 bfbe 3500 02bf 3510 ccbe 106c 13bf
000001f0: 2018 26bf 172c e6be baf7 163e 9042 adbd
00000200: 0941 aebe 8939 a13d 08d9 b4be 6fd8 17bf
00000210: af80 48be b175 2ebe 6dac 94be a91c e53d
00000220: 015b 8ebe b996 91be b989 66bd ad38 1abf
00000230: 1f12 fabe 6a50 d6bd 7d02 edbe 971a 61be
