finding-lanes/conv_autoencoder.pth (torch, 14188 bytes, 7 tensors)

encoder_network.0.weight f4 [16, 1, 3, 3]
-0.20646025 0.07178021 -0.0439998 -0.46724826 -0.1123303 0.048610106 -0.38143006 -0.23809852
0.37155467 -0.6817425 0.23058927 0.02288679 -0.2865917 0.30887786 0.595996 -0.464845
0.017858498 0.47777787 0.34660885 -0.24253494 -0.0031140042 -0.15240526 0.63498 0.36477152
-0.03257521 0.29648218 -0.26052773 0.20183189 0.18082184 -0.19608472 0.3733594 0.48634118
0.5984777 -0.40898293 -0.38272884 -0.23627883 -0.42655233 -0.47507858 -0.19255006 -0.44057688
-0.14164512 0.037051093 0.0859671 0.28503335 0.015396548 0.40193424 -0.3598992 -0.7407776
0.40090016 0.31618485 -0.36647987 0.12388668 0.32486698 -0.3313063 -0.2867359 -0.37613586
-0.3801257 -0.12448062 -0.29849863 -0.041224 0.13351549 0.027626561 0.3005073 -0.0028454205
-0.031039968 0.033784866 -0.41716233 -0.14073378 -0.40260053 -0.13323772 -0.17727692 -0.407222
0.4444315 0.08134448 0.08192088 0.41574195 -0.3097111 -0.016269285 0.5943531 -0.3818226
-0.30245906 0.10564734 -0.38172033 -0.31453183 -0.38431397 -0.28649947 -0.33976847 -0.10546278
-0.26038402 -0.23856784 0.13109298 0.2899368 0.02861614 -0.15336823 -0.29595008 -0.39065406
0.043302767 -0.1297171 -0.029606951 0.110754654 0.2465084 -0.08208085 0.002004406 -0.058437653
0.039947152 0.13409191 0.42997286 -0.062122423 -0.3376555 -0.29087803 -0.19249222 -0.053779557
-0.24449843 -0.30960834 -0.02480035 0.09696414 0.019959452 0.63868546 0.33909994 0.22779234
-0.36070517 -0.06754022 -0.1332222 -0.38375303 -0.08666677 -0.05955316 -0.48470613 -0.62764376
-0.52112097 0.044564445 -0.4786997 0.13165212 0.703755 0.5091671 0.5467245 -0.3627136
0.33003902 -0.1576741 0.37680027 0.76127917 -0.40542144 -0.1339571 0.43565097 -0.5455466
00000000: 516a 53be 8101 933d 2239 34bd 2a3b efbe
00000010: 6e0d e6bd 641b 473d cd4a c3be 19d0 73be
00000020: 6a3c be3e ad86 2ebf 981f 6c3e 147d bb3c
00000030: 26bc 92be 3d25 9e3e 3293 183f 2a00 eebe
00000040: fc4b 923c 4d9f f43e b776 b13e 145b 78be
00000050: 5214 4cbb 2010 1cbe 0d8e 223f 55c3 ba3e
00000060: 956d 05bd 83cc 973e e463 85be 05ad 4e3e
00000070: 5c29 393e 6fca 48be f728 bf3e b601 f93e
00000080: d635 193f 3666 d1be 09f5 c3be 14f3 71be
00000090: 1165 dabe 803d f3be d82b 45be 4b93 e1be
000000a0: 6b0b 11be e3c2 173d 850f b03d e4ef 913e
000000b0: ce41 7c3c 53ca cd3e b544 b8be 9aa3 3dbf
000000c0: c942 cd3e fbe2 a13e 40a3 bbbe 4db8 fd3d
000000d0: f754 a63e fba0 a9be 0ccf 92be e194 c0be
000000e0: d69f c2be b2ef febd d0d4 98be 7fda 28bd
000000f0: 49b8 083e 1951 e23c 18dc 993e 3c7a 3abb
00000100: 8847 febc 0062 0a3d 4d96 d5be 841c 10be
00000110: a821 cebe 786f 08be 1588 35be 677f d0be
00000120: 878c e33e ef97 a63d 22c6 a73d 21dc d43e
00000130: 7492 9ebe 2a47 85bc 8627 183f 407e c3be
00000140: eadb 9abe a25d d83d d970 c3be 510a a1be
00000150: cdc4 c4be 0fb0 92be 22f6 adbe dffc d7bd
00000160: 0e51 85be 214b 74be 3d3d 063e 9972 943e
00000170: 656c ea3c 900c 1dbe c586 97be cf03 c8be
00000180: 3e5e 313d 8fd4 04be 478a f2bc 56d3 e23d
00000190: b36c 7c3e 011a a8bd 5a5c 033b 525c 6fbd
000001a0: a09f 233d 644f 093e 6725 dc3e 1574 7ebd
000001b0: 2fe1 acbe f7ed 94be ae1c 45be f447 5cbd
000001c0: cc5d 7abe fc84 9ebe 1b2a cbbc 2395 c63d
000001d0: 0182 a33c e480 233f 829e ad3e 6542 693e
000001e0: 59ae b8be 8752 8abd 676b 08be 477b c4be
000001f0: 597e b1bd 04ee 73bd 672b f8be 43ad 20bf
00000200: 2f68 05bf 3589 363d 2118 f5be d0cf 063e
00000210: 4a29 343f c658 023f 23f6 0b3f 99b5 b9be
00000220: e0fa a83e 5275 21be f7eb c03e 31e3 423f
00000230: 6693 cfbe 0d2c 09be a50d df3e f1a8 0bbf

encoder_network.0.bias f4 [16]
0.2519488 0.2173503 0.7484952 0.08671395 0.13484465 -0.22756241 0.12433915 -0.3278064
0.6070525 0.15194371 0.29707128 0.7556706 -0.33012113 0.11927505 -0.17270923 0.28640085
00000000: 6fff 803e 1491 5e3e 629d 3f3f 1597 b13d
00000010: b714 0a3e 1f06 69be 86a5 fe3d 3ed6 a7be
00000020: cb67 1b3f 2297 1b3e ba19 983e a173 413f
00000030: a305 a9be 7a46 f43d b0da 30be 22a3 923e

encoder_network.3.weight f4 [8, 16, 3, 3]
-0.01625773 0.23516996 -0.16945817 -0.058698952 0.1627531 0.0042516715 -0.01684392 0.01392141
0.06577787 0.34676334 -0.16298336 0.22186318 0.1332877 -0.6916658 -0.023156382 0.17341636
0.019060142 0.006611003 0.124590695 -0.012736227 -0.14154026 -0.012549799 -0.26757386 -0.10390198
-0.14916782 0.045805622 -0.0006081523 0.041041154 0.2859064 0.15751179 0.19309685 -0.014697556
-0.26215863 0.047848627 -0.0313202 -0.113422394 -0.022621 0.20926774 0.01272578 0.102445334
0.110585354 0.15545803 -0.11165357 0.13807157 0.08121002 -0.047346666 -0.3316604 -0.2040109
-0.003953756 -0.031904615 -0.5691207 -0.036800608 0.05133212 0.013188976 -0.15405793 0.049982246
-0.0016140422 0.14821436 0.12339347 0.16380367 -0.08855938 0.04262431 0.10766479 0.061261397
0.0676987 -0.098118 0.2081056 0.06388411 0.21017894 -0.024485914 0.046766736 -0.10513086
-0.16668114 0.27863118 -0.01577181 -0.1068009 0.071579896 -0.29291114 -0.099976085 0.059322514
0.14180607 -0.20329222 0.13411506 0.027080797 0.1962185 -0.03930545 0.1357361 0.038953327
0.007108492 0.14236599 0.013614328 0.07713165 0.10127848 0.12943484 0.08927791 0.23168245
0.04456536 0.044743393 0.031055542 0.0203414 -0.092247486 -0.35912734 0.17601976 -0.14722429
-0.1285756 -0.038548246 -0.018090263 -0.070460536 -0.025397364 0.10617991 0.016930504 0.09378132
0.12076252 -0.034008406 -0.1075135 0.007837063 0.087533966 -0.06265848 0.02279654 0.044905312
0.110542536 -0.08523344 -0.35112363 0.07528714 -0.00203712 -0.027651437 0.19658165 -0.16190684
-0.16186231 -0.1276394 0.11749735 0.043097064 -0.09975543 0.082167715 0.014424552 -0.0011943663
-0.047647607 -0.21277863 0.2757611 -0.28472874 0.2097269 0.09861579 0.14803798 0.2945107
0.025030073 0.11798157 -0.073211975 0.13317434 0.014681592 0.016597662 0.034115456 0.07967302
-0.051499974 0.27419743 0.06374363 -0.020663554 -1.3261501 0.24528536 -0.0888136 -0.17733128
0.14718565 -0.016003106 -0.025005296 0.092438385 0.0073633427 -0.13877566 0.016808229 0.049210016
0.07311252 0.16483875 0.03742939 0.1623905 0.13976559 0.017682033 -0.120146394 -0.101108186
0.14299802 0.018760059 -0.07901838 0.16246538 0.05686135 -0.0043830522 -0.05923314 0.17308913
0.19799285 0.08915374 0.07425492 0.049109396 -0.051942334 0.0060581793 0.06661716 -0.020298231
-0.2908381 -0.2077802 0.020779327 0.01600009 -0.15022498 -0.051114917 0.054883428 0.0862379
0.06646108 0.06273813 0.10095791 0.024898294 -0.02517397 0.10826744 0.019090964 0.13426633
-0.036317293 -0.11083026 -0.027750626 0.26392582 0.10286994 0.10623881 -0.020648457 -0.062023215
0.12905368 -0.20779684 0.025269242 0.12171782 -0.29706633 0.14665194 -0.12405413 -0.075914845
0.025340084 0.06411091 0.079451375 0.025233721 -0.051464416 0.047381517 0.12521216 0.026929922
0.027548676 -0.00871196 0.09679178 0.12744777 -0.04241656 0.1490028 0.1478858 0.025943842
0.15281609 0.056337282 0.013185804 0.088111386 -0.021528466 0.015821451 -0.28891715 -0.16255742
0.09393144 -0.022849008 -0.045434996 0.023861816 0.078224085 -0.053262006 -0.0024680763 0.17120816
00000000: ee2e 85bc 65d0 703e 7186 2dbe 506e 70bd
00000010: c0a8 263e 9b51 8b3b 43fc 89bc a016 643c
00000020: 8cb6 863d f78a b13e 1ce5 26be 1a30 633e
00000030: 927c 083e 0311 31bf 74b2 bdbc 0f94 313e
00000040: 0424 9c3c 1da1 d83b 6829 ff3d 9cab 50bc
00000050: eeef 10be ac9d 4dbc 71ff 88be 90ca d4bd
00000060: 73bf 18be ad9e 3b3d 696c 1fba c51a 283d
00000070: 5362 923e c54a 213e 2ebb 453e 05ce 70bc
00000080: a839 86be ecfc 433d 9c49 00bd 004a e8bd
00000090: ad4f b9bc 484a 563e ca7f 503c dcce d13d
000000a0: 937a e23d 6430 1f3e a0aa e4bd a262 0d3e
000000b0: 7051 a63d 94ee 41bd 64cf a9be 3ce8 50be
000000c0: 828e 81bb 6aae 02bd e5b1 11bf 3cbc 16bd
000000d0: a141 523d 9316 583c 5dc1 1dbe 2fba 4c3d
000000e0: 458e d3ba 81c5 173e b7b5 fc3d 26bc 273e
000000f0: 9f5e b5bd d496 2e3d 5b7f dc3d 3bed 7a3d
00000100: 9ea5 8a3d 17f2 c8bd a219 553e acd5 823d
00000110: 2639 573e af96 c8bc 7a8e 3f3d d94e d7bd
00000120: 76ae 2abe bfa8 8e3e e233 81bc 6eba dabd
00000130: 7b98 923d 73f8 95be 43c0 ccbd 2afc 723d
00000140: 9c35 113e d62b 50be 7555 093e 8cd8 dd3c
00000150: 81ed 483e c0fe 20bd 67fe 0a3e 868d 1f3d
00000160: 5aee e83b 64c8 113e a10e 5f3c 33f7 9d3d
00000170: 176b cf3d 918a 043e 56d7 b63d 2a3e 6d3e
00000180: 2b8a 363d d944 373d 3168 fe3c 02a3 a63c
00000190: 40ec bcbd 8adf b7be 863e 343e f7c1 16be
000001a0: 52a9 03be c4e4 1dbd 0832 94bc 9d4d 90bd
000001b0: 220e d0bc da74 d93d d7b1 8a3c 6c10 c03d
000001c0: 5752 f73d 664c 0bbd 0a30 dcbd 0667 003c
000001d0: 0245 b33d 1753 80bd cfbf ba3c a2ee 373d
000001e0: 2064 e23d df8e aebd 7ac6 b3be 2530 9a3d
000001f0: 3481 05bb 4485 e2bc b34c 493e e8ca 25be
00000200: 3cbf 25be e7b3 02be 73a2 f03d 8c86 303d
00000210: 934c ccbd 8c47 a83d f554 6c3c 488c 9cba
00000220: 232a 43bd a4e2 59be 8f30 8d3e f7c7 91be
00000230: a6c2 563e 13f7 c93d 4597 173e 1bca 963e
00000240: de0b cd3c 52a0 f13d 29f0 95bd db5e 083e
00000250: 0f8b 703c d2f7 873c a6bc 0b3d 9c2b a33d
00000260: a3f1 52bd 9b63 8c3e 058c 823d 9d46 a9bc
00000270: 49bf a9bf 162c 7b3e e8e3 b5bd 5596 35be
00000280: d6b7 163e f218 83bc e8d7 ccbc 5650 bd3d
00000290: 3248 f13b 351b 0ebe 69b1 893c 7190 493d
000002a0: 04bc 953d 7dcb 283e 8f4f 193d b249 263e
000002b0: b61e 0f3e e9d9 903c 500f f6bd cf11 cfbd
000002c0: 136e 123e b2ae 993c 63d4 a1bd 535d 263e
000002d0: 72e7 683d b59f 8fbb 739e 72bd 473e 313e
000002e0: a3be 4a3e 3c96 b63d f712 983d ef26 493d
000002f0: 7cc1 54bd b183 c63b 946e 883d 7a48 a6bc
00000300: bbe8 94be 55c4 54be 6839 aa3c 9f12 833c
00000310: 94d4 19be e05d 51bd 72cd 603d 7f9d b03d
00000320: bf1c 883d d97c 803d 05c3 ce3d 82f7 cb3c
00000330: a439 cebc 52bb dd3d a764 9c3c 1d7d 093e
00000340: 71c1 14bd fafa e2bd 4855 e3bc 4921 873e
00000350: 7aad d23d bc93 d93d f426 a9bc 0e0c 7ebd
00000360: a626 043e b2c8 54be 7101 cf3c 3147 f93d
00000370: 1419 98be ed2b 163e 1710 febd 3e79 9bbd
00000380: 0296 cf3c 954c 833d 67b7 a23d f3b6 ce3c
00000390: 5acc 52bd 1f13 423d 9e37 003e 249c dc3c
000003a0: c3ad e13c 9cbc 0ebc c53a c63d ab81 023e
000003b0: fdbc 2dbd 3194 183e 606f 173e 2e88 d43c
000003c0: d27b 1c3e ecc1 663d 4509 583c be73 b43d
000003d0: 775c b0bc fd9b 813c f3ec 93be 7475 26be
000003e0: 205f c03d d82d bbbc 0c1a 3abd db79 c33c
000003f0: f333 a03d 4329 5abd 73bf 21bb 3151 2f3e

encoder_network.3.bias f4 [8]
0.19587293 0.083589576 0.010965507 0.0835371 0.16245149 0.08802211 0.10586595 0.028700413
00000000: ea92 483e 0331 ab3d aba8 333c 8015 ab3d
00000010: af59 263e f044 b43d 3fd0 d83d 211d eb3c

decoder_network.0.weight f4 [8, 16, 3, 3]
-0.029916804 0.1284079 0.012749724 -0.016298624 0.011457358 0.007740518 0.07314164 0.0189799
-0.18446365 0.04490418 -0.07062372 -0.08495443 -0.09164553 0.04695079 -0.07890515 0.07113158
0.04117255 -0.18162785 -0.039643265 -0.078849554 -0.034181174 -0.038173832 -0.045464993 0.119024254
-0.020608246 0.029612157 -0.028085338 0.0065351604 -0.091660164 -0.06580958 -0.03959135 -0.13336502
0.04380302 0.023494279 -0.028523149 0.15346412 -0.0755622 -0.13138035 -0.0037405277 -0.100815736
-0.029471517 -0.049027994 -0.06728423 0.031846642 0.13593015 -0.022773493 0.18376572 -0.02889849
0.04964894 0.19387142 -0.22125822 -0.034322727 0.12682608 -0.056810386 0.07143065 0.030167373
-0.08960119 -0.006484219 -0.020190278 0.016823202 0.0049980357 0.09003263 -0.05713385 0.036999293
0.08443545 0.047104504 0.0028195195 -0.011191944 0.2113118 -0.060275435 0.10559627 -0.039478965
-0.0764428 -0.08969112 -0.020401645 -0.03528197 -0.1273831 0.17111805 -0.037783265 0.15792547
0.30903974 0.020173416 0.086633645 -0.029420385 0.049602002 -0.0026689842 -0.014529939 -0.037533775
0.09370712 0.14619447 0.042490605 0.047131974 -0.041114412 -0.13244106 0.007054746 0.17600599
0.03329797 -0.06427652 0.00071858015 -0.026408687 0.0028394945 -0.077213734 0.029431682 -0.013057716
0.04587203 0.017151667 -0.032639433 0.21951328 -0.01747042 0.00491667 0.10470574 -0.05850041
0.014074851 0.23628984 0.056534436 0.13010599 0.20069389 0.06201911 0.01049451 0.036080968
-0.032144304 0.014163468 0.2978868 0.03008318 -0.06802262 -0.028334327 -0.023163078 -0.031335957
-0.025556436 0.10781984 -0.02274713 0.06530603 0.032053817 0.042200215 -0.09341333 -0.021985594
0.03177564 -0.07431236 0.0424928 -0.04230013 0.2590765 0.014550643 0.017893001 0.022711191
0.10601374 0.04747644 0.008431131 -0.03268535 -0.04681533 0.012783503 0.06992106 -0.091890596
0.007333438 -0.06978693 -0.04896165 0.078728065 0.20594606 0.006063391 0.07116364 -0.124513134
0.016225234 0.10449778 -0.04855595 -0.11148286 0.04058217 0.10348711 -0.09399417 0.09898675
-0.033796187 0.4238512 0.017632945 0.010073978 -0.012639817 0.029693369 -0.020015398 0.020766487
0.026128482 -0.03630675 0.26278415 -0.008144034 0.020952746 -0.06267857 0.019015264 -0.05311411
0.0150120035 0.094688535 0.13107245 0.048712272 -0.19921814 0.03500607 0.06429574 -0.0649754
0.18110994 -0.009015157 0.024962956 0.05687199 -0.23079652 0.14060943 -0.06702848 0.08016847
-0.070873536 -0.053939644 0.066043034 -0.057136845 -0.095197275 -0.24747325 -0.068985224 -0.06771393
0.053179536 0.04446278 0.060707934 -0.082814716 0.09772437 -0.036879607 -0.013030186 -0.02713885
-0.0424026 -0.008734614 0.060923066 0.10541049 0.24976331 -0.003559199 0.115828805 0.11949731
-0.02403074 0.052350488 -0.0036711758 -0.032331686 -0.011880142 -0.030871224 -0.037116516 0.03622613
0.05963859 0.123526074 0.03690027 -0.07703318 -0.01889208 -0.025529921 0.060670488 -0.07233303
-0.0146326935 -0.009355342 -0.016215825 0.024993205 -0.025188431 0.008809926 -0.057579912 0.05062488
0.10133602 0.044760488 0.28391284 -0.016240338 -0.041077502 -0.04523521 0.06881769 0.020448256
00000000: 1614 f5bc 5c7d 033e 38e4 503c b184 85bc
00000010: a4b7 3b3c 2ca4 fd3b 49cb 953d bc7b 9b3c
00000020: 0ae4 3cbe 72ed 373d 2ba3 90bd 97fc adbd
00000030: a7b0 bbbd 794f 403d 0699 a1bd 6fad 913d
00000040: 8ca4 283d a7fc 39be fa60 22bd e07b a1bd
00000050: 8f01 0cbd 2a5c 1cbd 8039 3abd fdc2 f33d
00000060: a0d2 a8bc 3295 f23c 3913 e6bc e624 d63b
00000070: 53b8 bbbd 2cc7 86bd 8a2a 22bd d790 08be
00000080: cc6a 333d 1377 c03c 61a9 e9bc b325 1d3e
00000090: 5bc0 9abd 9288 06be a423 75bb 7b78 cebd
000000a0: 406e f1bc 94d1 48bd 50cc 89bd a071 023d
000000b0: 4631 0b3e 7a8f babc 152d 3c3e 87bc ecbc
000000c0: b05c 4b3d 3b86 463e 8491 62be fd95 0cbd
000000d0: b2de 013e 02b2 68bd 3c4a 923d 9121 f73c
000000e0: d480 b7bd 9279 d4bb 1566 a5bc d0d0 893c
000000f0: 90c6 a33b 0763 b83d 2f05 6abd 928c 173d
00000100: 7eec ac3d a7f0 403d b0c7 383b 6a5e 37bc
00000110: 1f62 583e 60e3 76bd db42 d83d b2b4 21bd
00000120: 0b8e 9cbd faaf b7bd 5a21 a7bc d483 10bd
00000130: b770 02be 9239 2f3e a0c2 1abd 37b7 213e
00000140: 753a 9e3e b842 a53c fb6c b13d 0503 f1bc
00000150: 782b 4b3d 20ea 2ebb fb0e 6ebc 04bd 19bd
00000160: 85e9 bf3d 01b4 153e a10a 2e3d 750d 413d
00000170: 9667 28bd a19e 07be 802b e73b ea3a 343e
00000180: 7463 083d 68a3 83bd 195f 3c3a 0857 d8bc
00000190: d016 3a3b 3c22 9ebd b61a f13c 08f0 55bc
000001a0: 4fe4 3b3d a781 8c3c edb0 05bd 17c8 603e
000001b0: 201e 8fbc 041c a13b f76f d63d 209e 6fbd
000001c0: 349a 663c f7f5 713e a790 673d 813a 053e
000001d0: b382 4d3e c007 7e3d 2af1 2b3c a3c9 133d
000001e0: bfa9 03bd e40d 683c 9e84 983e 0071 f63c
000001f0: 724f 8bbd 641d e8bc 7fc0 bdbc 225a 00bd
00000200: bb5b d1bc a6d0 dc3d 3058 babc 2bbf 853d
00000210: dd4a 033d 22da 2c3d 7d4f bfbd 221b b4bc
00000220: 2c27 023d 1431 98bd ee0c 2e3d e742 2dbd
00000230: ada5 843e d265 6e3c 5894 923c d20c ba3c
00000240: bb1d d93d a876 423d ba22 0a3c 13e1 05bd
00000250: 6ec1 3fbd e671 513c c632 8f3d 2331 bcbd
00000260: 564d f03b 73ec 8ebd 038c 48bd 2e3c a13d
00000270: 86e3 523e 69af c63b 3ebe 913d be00 ffbd
00000280: c8ea 843c ef02 d63d 9be2 46bd 2051 e4bd
00000290: 7d39 263d 0df1 d33d 0480 c0bd 91b9 ca3d
000002a0: df6d 0abd 0603 d93e f772 903c 540d 253c
000002b0: 3c17 4fbc 823f f33c 55f7 a3bc 7b1e aa3c
000002c0: 660b d63c 63b6 14bd a58b 863e 8e6e 05bc
000002d0: 18a5 ab3c 9f5d 80bd e6c5 9b3c 2e8e 59bd
000002e0: e8f4 753c 10ec c13d db37 063e 8586 473d
000002f0: d7ff 4bbe 8662 0f3d 7cad 833d d311 85bd
00000300: e274 393e 4fb4 13bc 1d7f cc3c 9bf2 683d
00000310: ec55 6cbe ebfb 0f3e 3a46 89bd 5e2f a43d
00000320: 2526 91bd d1ef 5cbd 9241 873d 5308 6abd
00000330: caf6 c2bd a169 7dbe 2048 8dbd 9aad 8abd
00000340: c9d2 593d 9b1e 363d e2a8 783d c39a a9bd
00000350: b723 c83d 120f 17bd 907c 55bc 4b52 debc
00000360: 59ae 2dbd a01b 0fbc 778a 793d 74e1 d73d
00000370: f4c1 7f3e 7341 69bb a737 ed3d 01bb f43d
00000380: 1ddc c4bc 776d 563d 1c98 70bb 3b6e 04bd
00000390: eda4 42bc a6e5 fcbc 7d07 18bd da61 143d
000003a0: 9847 743d 3dfb fc3d bd24 173d 92c3 9dbd
000003b0: 90c3 9abc 2024 d1bc 9e81 783d 5723 94bd
000003c0: f7bd 6fbc 2647 19bc 0dd7 84bc 8dbe cc3c
000003d0: f857 cebc 8257 103c ead8 6bbd 095c 4f3d
000003e0: 4289 cf3d c656 373d 065d 913e 750a 85bc
000003f0: e240 28bd 8e48 39bd 4af0 8c3d 1a83 a73c

decoder_network.0.bias f4 [16]
0.009469737 -0.032078706 0.012471254 0.12792994 -0.014842369 0.0065890145 0.041616548 -0.11854161
0.05198084 0.005412306 -0.03442208 0.13372819 0.08573552 0.075410314 0.045794554 0.11146168
00000000: f526 1b3c f664 03bd 3b54 4c3c 1100 033e
00000010: 682d 73bc a9e8 d73b 1d76 2a3d f2c5 f2bd
00000020: dce9 543d b759 b13b 2bfe 0cbd 0bf0 083e
00000030: 1b96 af3d b970 9a3d 1293 3b3d 0546 e43d

decoder_network.2.weight f4 [16, 1, 3, 3]
0.13059914 0.31334713 0.17015006 0.040136747 0.028701726 -0.012378273 0.12118268 0.060103584
0.35451344 -0.111660115 0.3153152 0.066409834 0.0017134661 0.4692677 0.33088672 -0.15244783
0.21501756 -0.013533468 0.2576918 -0.16142529 0.010383183 -0.06802707 -0.45216608 -0.18290004
-0.22693703 -0.43015328 -0.2033867 0.15692037 -0.21569575 -0.11766702 -0.38117173 -0.41179812
0.0106692435 -0.3119859 -0.21555904 0.24021953 0.2719962 0.13604847 -0.10270528 0.47649223
0.24077387 0.23679681 0.34571287 0.30546165 0.30422097 0.07436476 -0.07955517 -0.14775875
0.37150824 0.38139609 0.22519371 0.20504117 0.44869334 0.2498832 -0.1709747 0.2237554
0.14063223 0.017650507 0.31029388 -0.06921007 -0.25351077 -0.2454157 0.119604334 -0.37844488
-0.3786304 -0.33062506 -0.4148005 -0.33119172 -0.5090248 -0.16617197 -0.17797822 -0.17195864
-0.44381967 -0.4816498 -0.29950213 -0.4591537 -0.29850107 -0.19481212 -0.2300464 0.06931748
-0.34547827 0.22463015 -0.14399311 -0.10655567 -0.07252506 -0.38140136 -0.52716255 -0.13678282
-0.5743926 -0.382504 -0.34684363 -0.34344214 -0.0038811283 -0.4741779 -0.10317739 -0.23583002
-0.31749445 -0.08414744 -0.032783628 -0.27208653 -0.34298965 0.06710859 -0.24946626 -0.54954946
-0.40004432 -0.067017555 0.002572435 0.25781754 0.08794821 0.121373475 -0.13080339 0.36765593
-0.0003848105 -0.31811878 0.016132148 -0.28313443 -0.46148607 0.113450654 -0.28735828 0.10365766
0.30742708 -0.33293942 -0.28914618 0.3752087 0.0875902 -0.2862223 0.2742167 0.35453466
0.057276223 0.08423658 0.3825687 -0.19955885 -0.22552077 -0.18644388 -0.14931986 -0.15429589
0.11364958 -0.23871796 -0.16629356 -0.31157753 -0.12283935 -0.022607803 -0.37822264 -0.3776188
00000000: c8bb 053e 096f a03e d13b 2e3e 6e66 243d
00000010: e21f eb3c 3dce 4abc a02e f83d 2d2f 763d
00000020: c982 b53e 0fae e4bd fe70 a13e e101 883d
00000030: 6296 e03a db43 f03e fc69 a93e 491b 1cbe
00000040: 902d 5c3e 7bbb 5dbc 2ef0 833e ac4c 25be
00000050: 3a1e 2a3c c751 8bbd 5082 e7be 264a 3bbe
00000060: 2e62 68be 0d3d dcbe 9a44 50be bcaf 203e
00000070: 59df 5cbe 68fb f0bd f128 c3be 34d7 d2be
00000080: 0dce 2e3c 9ebc 9fbe 82bb 5cbe 1cfc 753e
00000090: 1643 8b3e 4a50 0b3e 2557 d2bd caf6 f33e
000000a0: 6d8d 763e dd7a 723e 4701 b13e 7865 9c3e
000000b0: dac2 9b3e 8d4c 983d d2ed a2bd 124e 17be
000000c0: 5436 be3e 5946 c33e 2e99 663e 50f6 513e
000000d0: 22bb e53e 62e1 7f3e fe13 2fbe 2320 653e
000000e0: e501 103e cc97 903c d7de 9e3e 02be 8dbd
000000f0: 2acc 81be 414e 7bbe 1ef3 f43d 87c3 c1be
00000100: d8db c1be b047 a9be bb60 d4be f691 a9be
00000110: 734f 02bf fc28 2abe ec3f 36be ed15 30be
00000120: 553c e3be cd9a f6be 5858 99be 3216 ebbe
00000130: 22d5 98be d47c 47be 4991 6bbe 53f6 8d3d
00000140: 87e2 b0be 7205 663e ee72 13be dc39 dabd
00000150: 0588 94bd 0a47 c3be 20f4 06bf cc10 0cbe
00000160: 650b 13bf 90d7 c3be 7d95 b1be a6d7 afbe
00000170: 875a 7ebb 72c7 f2be ab4e d3bd 6d7d 71be
00000180: a28e a2be 7e55 acbd 2048 06bd ed4e 8bbe
00000190: 579c afbe 3a70 893d 1574 7fbe 46af 0cbf
000001a0: 9cd2 ccbe 8040 89bd 4c96 283b a900 843e
000001b0: 311e b43d a892 f83d 53f1 05be 663d bc3e
000001c0: 64c0 c9b9 77e0 a2be 9127 843c fff6 90be
000001d0: e747 ecbe d158 e83d a020 93be 784a d43d
000001e0: 1567 9d3e 0977 aabe f80a 94be 5b1b c03e
000001f0: 7e62 b33d bb8b 92be 2266 8c3e 9185 b53e
00000200: 799a 6a3d 3a84 ac3d 0be0 c33e 2859 4cbe
00000210: ebee 66be 25eb 3ebe 4ee7 18be beff 1dbe
00000220: 1cc1 e83d 7b72 74be dc48 2abe 1787 9fbe
00000230: 3293 fbbd 0034 b9bc 66a6 c1be 4057 c1be
